…
/mnt/home/rzhang/venvs/aion/lib/python3.10/site-packages/albumentations/__init__.py:28: UserWarning: A new version of Albumentations is available: '2.0.6' (you have '2.0.5'). Upgrade using: pip install -U albumentations. To disable automatic update checks, set the environment variable NO_ALBUMENTATIONS_UPDATE to 1.
  check_for_updates()
INFO:datasets:PyTorch version 2.4.0+cu124 available.
INFO:datasets:TensorFlow version 2.16.1 available.
INFO:datasets:JAX version 0.4.26 available.

=== Loading Model ===
Loading weights from local directory
Model loaded from pretrained weights
Model moved to CUDA and set to eval mode
Model architecture:
AION(
  (encoder_embeddings): ModuleDict(
    (catalog): SequenceEncoderEmbedding(
      (token_emb): Embedding(3468, 768, padding_idx=0)
    )
    (tok_a_g): ImageTokenEncoderEmbedding(
      (token_emb): Embedding(1024, 768)
    )
    (tok_a_i): ImageTokenEncoderEmbedding(
      (token_emb): Embedding(1024, 768)
    )
    (tok_a_r): ImageTokenEncoderEmbedding(
      (token_emb): Embedding(1024, 768)
    )
    (tok_a_y): ImageTokenEncoderEmbedding(
      (token_emb): Embedding(1024, 768)
    )
    (tok_a_z): ImageTokenEncoderEmbedding(
      (token_emb): Embedding(1024, 768)
    )
    (tok_dec): ImageTokenEncoderEmbedding(
      (token_emb): Embedding(1024, 768)
    )
    (tok_ebv): ImageTokenEncoderEmbedding(
      (token_emb): Embedding(1024, 768)
    )
    (tok_flux_bp_gaia): ImageTokenEncoderEmbedding(
      (token_emb): Embedding(1024, 768)
    )
    (tok_flux_g): ImageTokenEncoderEmbedding(
      (token_emb): Embedding(1024, 768)
    )
    (tok_flux_g_gaia): ImageTokenEncoderEmbedding(
      (token_emb): Embedding(1024, 768)
    )
    (tok_flux_i): ImageTokenEncoderEmbedding(
      (token_emb): Embedding(1024, 768)
    )
    (tok_flux_r): ImageTokenEncoderEmbedding(
      (token_emb): Embedding(1024, 768)
    )
    (tok_flux_rp_gaia): ImageTokenEncoderEmbedding(
      (token_emb): Embedding(1024, 768)
    )
    (tok_flux_w1): ImageTokenEncoderEmbedding(
      (token_emb): Embedding(1024, 768)
    )
    (tok_flux_w2): ImageTokenEncoderEmbedding(
      (token_emb): Embedding(1024, 768)
    )
    (tok_flux_w3): ImageTokenEncoderEmbedding(
      (token_emb): Embedding(1024, 768)
    )
    (tok_flux_w4): ImageTokenEncoderEmbedding(
      (token_emb): Embedding(1024, 768)
    )
    (tok_flux_z): ImageTokenEncoderEmbedding(
      (token_emb): Embedding(1024, 768)
    )
    (tok_image): ImageTokenEncoderEmbedding(
      (token_emb): Embedding(4375, 768)
    )
    (tok_image_hsc): ImageTokenEncoderEmbedding(
      (token_emb): Embedding(4375, 768)
    )
    (tok_mag_g): ImageTokenEncoderEmbedding(
      (token_emb): Embedding(1024, 768)
    )
    (tok_mag_i): ImageTokenEncoderEmbedding(
      (token_emb): Embedding(1024, 768)
    )
    (tok_mag_r): ImageTokenEncoderEmbedding(
      (token_emb): Embedding(1024, 768)
    )
    (tok_mag_y): ImageTokenEncoderEmbedding(
      (token_emb): Embedding(1024, 768)
    )
    (tok_mag_z): ImageTokenEncoderEmbedding(
      (token_emb): Embedding(1024, 768)
    )
    (tok_parallax): ImageTokenEncoderEmbedding(
      (token_emb): Embedding(1024, 768)
    )
    (tok_ra): ImageTokenEncoderEmbedding(
      (token_emb): Embedding(1024, 768)
    )
    (tok_segmap): ImageTokenEncoderEmbedding(
      (token_emb): Embedding(1000, 768)
    )
    (tok_shape11): ImageTokenEncoderEmbedding(
      (token_emb): Embedding(1024, 768)
    )
    (tok_shape12): ImageTokenEncoderEmbedding(
      (token_emb): Embedding(1024, 768)
    )
    (tok_shape22): ImageTokenEncoderEmbedding(
      (token_emb): Embedding(1024, 768)
    )
    (tok_shape_e1): ImageTokenEncoderEmbedding(
      (token_emb): Embedding(1024, 768)
    )
    (tok_shape_e2): ImageTokenEncoderEmbedding(
      (token_emb): Embedding(1024, 768)
    )
    (tok_shape_r): ImageTokenEncoderEmbedding(
      (token_emb): Embedding(1024, 768)
    )
    (tok_spectrum_desi): ImageTokenEncoderEmbedding(
      (token_emb): Embedding(1024, 768)
    )
    (tok_spectrum_sdss): ImageTokenEncoderEmbedding(
      (token_emb): Embedding(1024, 768)
    )
    (tok_xp_bp): ImageTokenEncoderEmbedding(
      (token_emb): Embedding(1024, 768)
    )
    (tok_xp_rp): ImageTokenEncoderEmbedding(
      (token_emb): Embedding(1024, 768)
    )
    (tok_z): ImageTokenEncoderEmbedding(
      (token_emb): Embedding(1025, 768)
    )
  )
  (decoder_embeddings): ModuleDict(
    (catalog): SequenceDecoderEmbedding(
      (token_emb): Embedding(3468, 768, padding_idx=0)
      (to_logits): Linear(in_features=768, out_features=3468, bias=False)
    )
    (tok_a_g): ImageTokenDecoderEmbedding(
      (token_emb): Embedding(1024, 768)
      (to_logits): Linear(in_features=768, out_features=1024, bias=False)
    )
    (tok_a_i): ImageTokenDecoderEmbedding(
      (token_emb): Embedding(1024, 768)
      (to_logits): Linear(in_features=768, out_features=1024, bias=False)
    )
    (tok_a_r): ImageTokenDecoderEmbedding(
      (token_emb): Embedding(1024, 768)
      (to_logits): Linear(in_features=768, out_features=1024, bias=False)
    )
    (tok_a_y): ImageTokenDecoderEmbedding(
      (token_emb): Embedding(1024, 768)
      (to_logits): Linear(in_features=768, out_features=1024, bias=False)
    )
    (tok_a_z): ImageTokenDecoderEmbedding(
      (token_emb): Embedding(1024, 768)
      (to_logits): Linear(in_features=768, out_features=1024, bias=False)
    )
    (tok_dec): ImageTokenDecoderEmbedding(
      (token_emb): Embedding(1024, 768)
      (to_logits): Linear(in_features=768, out_features=1024, bias=False)
    )
    (tok_ebv): ImageTokenDecoderEmbedding(
      (token_emb): Embedding(1024, 768)
      (to_logits): Linear(in_features=768, out_features=1024, bias=False)
    )
    (tok_flux_bp_gaia): ImageTokenDecoderEmbedding(
      (token_emb): Embedding(1024, 768)
      (to_logits): Linear(in_features=768, out_features=1024, bias=False)
    )
    (tok_flux_g): ImageTokenDecoderEmbedding(
      (token_emb): Embedding(1024, 768)
      (to_logits): Linear(in_features=768, out_features=1024, bias=False)
    )
    (tok_flux_g_gaia): ImageTokenDecoderEmbedding(
      (token_emb): Embedding(1024, 768)
      (to_logits): Linear(in_features=768, out_features=1024, bias=False)
    )
    (tok_flux_i): ImageTokenDecoderEmbedding(
      (token_emb): Embedding(1024, 768)
      (to_logits): Linear(in_features=768, out_features=1024, bias=False)
    )
    (tok_flux_r): ImageTokenDecoderEmbedding(
      (token_emb): Embedding(1024, 768)
      (to_logits): Linear(in_features=768, out_features=1024, bias=False)
    )
    (tok_flux_rp_gaia): ImageTokenDecoderEmbedding(
      (token_emb): Embedding(1024, 768)
      (to_logits): Linear(in_features=768, out_features=1024, bias=False)
    )
    (tok_flux_w1): ImageTokenDecoderEmbedding(
      (token_emb): Embedding(1024, 768)
      (to_logits): Linear(in_features=768, out_features=1024, bias=False)
    )
    (tok_flux_w2): ImageTokenDecoderEmbedding(
      (token_emb): Embedding(1024, 768)
      (to_logits): Linear(in_features=768, out_features=1024, bias=False)
    )
    (tok_flux_w3): ImageTokenDecoderEmbedding(
      (token_emb): Embedding(1024, 768)
      (to_logits): Linear(in_features=768, out_features=1024, bias=False)
    )
    (tok_flux_w4): ImageTokenDecoderEmbedding(
      (token_emb): Embedding(1024, 768)
      (to_logits): Linear(in_features=768, out_features=1024, bias=False)
    )
    (tok_flux_z): ImageTokenDecoderEmbedding(
      (token_emb): Embedding(1024, 768)
      (to_logits): Linear(in_features=768, out_features=1024, bias=False)
    )
    (tok_image): ImageTokenDecoderEmbedding(
      (token_emb): Embedding(4375, 768)
      (to_logits): Linear(in_features=768, out_features=4375, bias=False)
    )
    (tok_image_hsc): ImageTokenDecoderEmbedding(
      (token_emb): Embedding(4375, 768)
      (to_logits): Linear(in_features=768, out_features=4375, bias=False)
    )
    (tok_mag_g): ImageTokenDecoderEmbedding(
      (token_emb): Embedding(1024, 768)
      (to_logits): Linear(in_features=768, out_features=1024, bias=False)
    )
    (tok_mag_i): ImageTokenDecoderEmbedding(
      (token_emb): Embedding(1024, 768)
      (to_logits): Linear(in_features=768, out_features=1024, bias=False)
    )
    (tok_mag_r): ImageTokenDecoderEmbedding(
      (token_emb): Embedding(1024, 768)
      (to_logits): Linear(in_features=768, out_features=1024, bias=False)
    )
    (tok_mag_y): ImageTokenDecoderEmbedding(
      (token_emb): Embedding(1024, 768)
      (to_logits): Linear(in_features=768, out_features=1024, bias=False)
    )
    (tok_mag_z): ImageTokenDecoderEmbedding(
      (token_emb): Embedding(1024, 768)
      (to_logits): Linear(in_features=768, out_features=1024, bias=False)
    )
    (tok_parallax): ImageTokenDecoderEmbedding(
      (token_emb): Embedding(1024, 768)
      (to_logits): Linear(in_features=768, out_features=1024, bias=False)
    )
    (tok_ra): ImageTokenDecoderEmbedding(
      (token_emb): Embedding(1024, 768)
      (to_logits): Linear(in_features=768, out_features=1024, bias=False)
    )
    (tok_segmap): ImageTokenDecoderEmbedding(
      (token_emb): Embedding(1000, 768)
      (to_logits): Linear(in_features=768, out_features=1000, bias=False)
    )
    (tok_shape11): ImageTokenDecoderEmbedding(
      (token_emb): Embedding(1024, 768)
      (to_logits): Linear(in_features=768, out_features=1024, bias=False)
    )
    (tok_shape12): ImageTokenDecoderEmbedding(
      (token_emb): Embedding(1024, 768)
      (to_logits): Linear(in_features=768, out_features=1024, bias=False)
    )
    (tok_shape22): ImageTokenDecoderEmbedding(
      (token_emb): Embedding(1024, 768)
      (to_logits): Linear(in_features=768, out_features=1024, bias=False)
    )
    (tok_shape_e1): ImageTokenDecoderEmbedding(
      (token_emb): Embedding(1024, 768)
      (to_logits): Linear(in_features=768, out_features=1024, bias=False)
    )
    (tok_shape_e2): ImageTokenDecoderEmbedding(
      (token_emb): Embedding(1024, 768)
      (to_logits): Linear(in_features=768, out_features=1024, bias=False)
    )
    (tok_shape_r): ImageTokenDecoderEmbedding(
      (token_emb): Embedding(1024, 768)
      (to_logits): Linear(in_features=768, out_features=1024, bias=False)
    )
    (tok_spectrum_desi): ImageTokenDecoderEmbedding(
      (token_emb): Embedding(1024, 768)
      (to_logits): Linear(in_features=768, out_features=1024, bias=False)
    )
    (tok_spectrum_sdss): ImageTokenDecoderEmbedding(
      (token_emb): Embedding(1024, 768)
      (to_logits): Linear(in_features=768, out_features=1024, bias=False)
    )
    (tok_xp_bp): ImageTokenDecoderEmbedding(
      (token_emb): Embedding(1024, 768)
      (to_logits): Linear(in_features=768, out_features=1024, bias=False)
    )
    (tok_xp_rp): ImageTokenDecoderEmbedding(
      (token_emb): Embedding(1024, 768)
      (to_logits): Linear(in_features=768, out_features=1024, bias=False)
    )
    (tok_z): ImageTokenDecoderEmbedding(
      (token_emb): Embedding(1025, 768)
      (to_logits): Linear(in_features=768, out_features=1025, bias=False)
    )
  )
  (encoder): ModuleList(
    (0-11): 12 x Block(
      (norm1): LayerNorm()
      (attn): NormAttention(
        (qkv): Linear(in_features=768, out_features=2304, bias=False)
        (attn_drop): Dropout(p=0.0, inplace=False)
        (proj): Linear(in_features=768, out_features=768, bias=False)
        (proj_drop): Dropout(p=0.0, inplace=False)
        (q_norm): LayerNorm()
        (k_norm): LayerNorm()
      )
      (drop_path): Identity()
      (norm2): LayerNorm()
      (mlp): GatedMlp(
        (fc1): Linear(in_features=768, out_features=2048, bias=False)
        (act): SiLU()
        (fc2): Linear(in_features=2048, out_features=768, bias=False)
        (fc3): Linear(in_features=768, out_features=2048, bias=False)
      )
    )
  )
  (encoder_norm): LayerNorm()
  (decoder_proj_context): Linear(in_features=768, out_features=768, bias=True)
  (decoder): ModuleList(
    (0-11): 12 x DecoderBlock(
      (norm1): LayerNorm()
      (self_attn): NormAttention(
        (qkv): Linear(in_features=768, out_features=2304, bias=False)
        (attn_drop): Dropout(p=0.0, inplace=False)
        (proj): Linear(in_features=768, out_features=768, bias=False)
        (proj_drop): Dropout(p=0.0, inplace=False)
        (q_norm): LayerNorm()
        (k_norm): LayerNorm()
      )
      (cross_attn): NormCrossAttention(
        (q): Linear(in_features=768, out_features=768, bias=False)
        (kv): Linear(in_features=768, out_features=1536, bias=False)
        (attn_drop): Dropout(p=0.0, inplace=False)
        (proj): Linear(in_features=768, out_features=768, bias=False)
        (proj_drop): Dropout(p=0.0, inplace=False)
        (q_norm): LayerNorm()
        (k_norm): LayerNorm()
      )
      (query_norm): LayerNorm()
      (context_norm): LayerNorm()
      (drop_path): Identity()
      (norm2): LayerNorm()
      (mlp): GatedMlp(
        (fc1): Linear(in_features=768, out_features=2048, bias=False)
        (act): SiLU()
        (fc2): Linear(in_features=2048, out_features=768, bias=False)
        (fc3): Linear(in_features=768, out_features=2048, bias=False)
      )
    )
  )
  (decoder_norm): LayerNorm()
)

=== Setting Up Data ===
Data config path: 4Mclone/cfgs/default/mmoma/data/mmu/rusty_legacysurvey_desi_sdss_hsc.yaml
Text tokenizer path: 4Mclone/fourm/utils/tokenizer/trained/text_tokenizer_4m_wordpiece_30k.json
Batch size: 128
Epoch size: 5000
Loading data config from: 4Mclone/cfgs/default/mmoma/data/mmu/rusty_legacysurvey_desi_sdss_hsc.yaml
Setting up dataset legacysurvey / train
Loading alphas config from: 4Mclone/cfgs/default/mmoma/data/mmu/beta_configs.yaml
…
